[2024-02-13 07:11:13,264] [INFO] [real_accelerator.py:191:get_accelerator] Setting ds_accelerator to cuda (auto detect)
----------------------------------------------------------------
        Layer (type)               Output Shape         Param #
================================================================
            Conv2d-1            [-1, 6, 24, 24]             156
         LeakyReLU-2            [-1, 6, 24, 24]               0
         MaxPool2d-3            [-1, 6, 12, 12]               0
            Conv2d-4           [-1, 16, 10, 10]           2,416
         LeakyReLU-5           [-1, 16, 10, 10]               0
         MaxPool2d-6             [-1, 16, 5, 5]               0
        KronLinear-7                  [-1, 120]               0
         LeakyReLU-8                  [-1, 120]               0
        KronLinear-9                   [-1, 84]               0
        LeakyReLU-10                   [-1, 84]               0
       KronLinear-11                   [-1, 10]               0
================================================================
Total params: 2,572
Trainable params: 2,572
Non-trainable params: 0
----------------------------------------------------------------
Input size (MB): 0.00
Forward/backward pass size (MB): 0.09
Params size (MB): 0.01
Estimated Total Size (MB): 0.10
----------------------------------------------------------------
[2024-02-13 07:11:14,662] [INFO] [profiler.py:1205:get_model_profile] Flops profiler warming-up...
…
